…
 /scratch/361092.sakkaya
INFO: your job will run on local system.
(772, 512, 512, 3)
(152, 512, 512, 1)
(112, 512, 512, 3)
Optimizer: adam Loss function: <function binary_focal_loss.<locals>.binary_focal_loss_fixed at 0x7fcaa52ff1f0> base filter size:  4
Model: "model"
__________________________________________________________________________________________________
Layer (type)                    Output Shape         Param #     Connected to                     
==================================================================================================
input_1 (InputLayer)            [(None, 512, 512, 3) 0                                            
__________________________________________________________________________________________________
conv2d (Conv2D)                 (None, 512, 512, 4)  112         input_1[0][0]                    
__________________________________________________________________________________________________
conv2d_1 (Conv2D)               (None, 512, 512, 4)  148         conv2d[0][0]                     
__________________________________________________________________________________________________
max_pooling2d (MaxPooling2D)    (None, 256, 256, 4)  0           conv2d_1[0][0]                   
__________________________________________________________________________________________________
conv2d_2 (Conv2D)               (None, 256, 256, 8)  296         max_pooling2d[0][0]              
__________________________________________________________________________________________________
conv2d_3 (Conv2D)               (None, 256, 256, 8)  584         conv2d_2[0][0]                   
__________________________________________________________________________________________________
max_pooling2d_1 (MaxPooling2D)  (None, 128, 128, 8)  0           conv2d_3[0][0]                   
__________________________________________________________________________________________________
conv2d_4 (Conv2D)               (None, 128, 128, 16) 1168        max_pooling2d_1[0][0]            
__________________________________________________________________________________________________
conv2d_5 (Conv2D)               (None, 128, 128, 16) 2320        conv2d_4[0][0]                   
__________________________________________________________________________________________________
max_pooling2d_2 (MaxPooling2D)  (None, 64, 64, 16)   0           conv2d_5[0][0]                   
__________________________________________________________________________________________________
conv2d_6 (Conv2D)               (None, 64, 64, 32)   4640        max_pooling2d_2[0][0]            
__________________________________________________________________________________________________
conv2d_7 (Conv2D)               (None, 64, 64, 32)   9248        conv2d_6[0][0]                   
__________________________________________________________________________________________________
max_pooling2d_3 (MaxPooling2D)  (None, 32, 32, 32)   0           conv2d_7[0][0]                   
__________________________________________________________________________________________________
conv2d_8 (Conv2D)               (None, 32, 32, 64)   18496       max_pooling2d_3[0][0]            
__________________________________________________________________________________________________
conv2d_9 (Conv2D)               (None, 32, 32, 64)   36928       conv2d_8[0][0]                   
__________________________________________________________________________________________________
max_pooling2d_4 (MaxPooling2D)  (None, 16, 16, 64)   0           conv2d_9[0][0]                   
__________________________________________________________________________________________________
conv2d_10 (Conv2D)              (None, 16, 16, 128)  73856       max_pooling2d_4[0][0]            
__________________________________________________________________________________________________
conv2d_11 (Conv2D)              (None, 16, 16, 128)  147584      conv2d_10[0][0]                  
__________________________________________________________________________________________________
max_pooling2d_5 (MaxPooling2D)  (None, 8, 8, 128)    0           conv2d_11[0][0]                  
__________________________________________________________________________________________________
conv2d_12 (Conv2D)              (None, 8, 8, 256)    295168      max_pooling2d_5[0][0]            
__________________________________________________________________________________________________
conv2d_13 (Conv2D)              (None, 8, 8, 256)    590080      conv2d_12[0][0]                  
__________________________________________________________________________________________________
conv2d_transpose (Conv2DTranspo (None, 16, 16, 64)   65600       conv2d_13[0][0]                  
__________________________________________________________________________________________________
concatenate (Concatenate)       (None, 16, 16, 192)  0           conv2d_transpose[0][0]           
                                                                 conv2d_11[0][0]                  
__________________________________________________________________________________________________
conv2d_14 (Conv2D)              (None, 16, 16, 128)  221312      concatenate[0][0]                
__________________________________________________________________________________________________
conv2d_15 (Conv2D)              (None, 16, 16, 128)  147584      conv2d_14[0][0]                  
__________________________________________________________________________________________________
conv2d_transpose_1 (Conv2DTrans (None, 32, 32, 32)   16416       conv2d_15[0][0]                  
__________________________________________________________________________________________________
concatenate_1 (Concatenate)     (None, 32, 32, 96)   0           conv2d_transpose_1[0][0]         
                                                                 conv2d_9[0][0]                   
__________________________________________________________________________________________________
conv2d_16 (Conv2D)              (None, 32, 32, 64)   55360       concatenate_1[0][0]              
__________________________________________________________________________________________________
conv2d_17 (Conv2D)              (None, 32, 32, 64)   36928       conv2d_16[0][0]                  
__________________________________________________________________________________________________
conv2d_transpose_2 (Conv2DTrans (None, 64, 64, 16)   4112        conv2d_17[0][0]                  
__________________________________________________________________________________________________
concatenate_2 (Concatenate)     (None, 64, 64, 48)   0           conv2d_transpose_2[0][0]         
                                                                 conv2d_7[0][0]                   
__________________________________________________________________________________________________
conv2d_18 (Conv2D)              (None, 64, 64, 32)   13856       concatenate_2[0][0]              
__________________________________________________________________________________________________
conv2d_19 (Conv2D)              (None, 64, 64, 32)   9248        conv2d_18[0][0]                  
__________________________________________________________________________________________________
conv2d_transpose_3 (Conv2DTrans (None, 128, 128, 8)  1032        conv2d_19[0][0]                  
__________________________________________________________________________________________________
concatenate_3 (Concatenate)     (None, 128, 128, 24) 0           conv2d_transpose_3[0][0]         
                                                                 conv2d_5[0][0]                   
__________________________________________________________________________________________________
conv2d_20 (Conv2D)              (None, 128, 128, 16) 3472        concatenate_3[0][0]              
__________________________________________________________________________________________________
conv2d_21 (Conv2D)              (None, 128, 128, 16) 2320        conv2d_20[0][0]                  
__________________________________________________________________________________________________
conv2d_transpose_4 (Conv2DTrans (None, 256, 256, 4)  260         conv2d_21[0][0]                  
__________________________________________________________________________________________________
concatenate_4 (Concatenate)     (None, 256, 256, 12) 0           conv2d_transpose_4[0][0]         
                                                                 conv2d_3[0][0]                   
__________________________________________________________________________________________________
conv2d_22 (Conv2D)              (None, 256, 256, 8)  872         concatenate_4[0][0]              
__________________________________________________________________________________________________
conv2d_23 (Conv2D)              (None, 256, 256, 8)  584         conv2d_22[0][0]                  
__________________________________________________________________________________________________
conv2d_transpose_5 (Conv2DTrans (None, 512, 512, 2)  66          conv2d_23[0][0]                  
__________________________________________________________________________________________________
concatenate_5 (Concatenate)     (None, 512, 512, 6)  0           conv2d_transpose_5[0][0]         
                                                                 conv2d_1[0][0]                   
__________________________________________________________________________________________________
conv2d_24 (Conv2D)              (None, 512, 512, 8)  440         concatenate_5[0][0]              
__________________________________________________________________________________________________
conv2d_25 (Conv2D)              (None, 512, 512, 8)  584         conv2d_24[0][0]                  
__________________________________________________________________________________________________
conv2d_26 (Conv2D)              (None, 512, 512, 1)  9           conv2d_25[0][0]                  
==================================================================================================
Total params: 1,760,683
Trainable params: 1,760,683
Non-trainable params: 0
__________________________________________________________________________________________________
Epoch 1/250
 1/49 [..............................] - ETA: 6:29 - loss: 0.1236 - 
…
mean iou 0.43103699064851886
dice coeff. 0.6024120878289542
pixel acc. 0.9650947366441999
pixel acc. for wire only 0.49240078592439346
Optimizer: adam Loss function: <function binary_focal_loss.<locals>.binary_focal_loss_fixed at 0x7fcaa52ff1f0> base filter size:  16
Model: "model_1"
__________________________________________________________________________________________________
Layer (type)                    Output Shape         Param #     Connected to                     
==================================================================================================
input_2 (InputLayer)            [(None, 512, 512, 3) 0                                            
__________________________________________________________________________________________________
conv2d_27 (Conv2D)              (None, 512, 512, 16) 448         input_2[0][0]                    
__________________________________________________________________________________________________
conv2d_28 (Conv2D)              (None, 512, 512, 16) 2320        conv2d_27[0][0]                  
__________________________________________________________________________________________________
max_pooling2d_6 (MaxPooling2D)  (None, 256, 256, 16) 0           conv2d_28[0][0]                  
__________________________________________________________________________________________________
conv2d_29 (Conv2D)              (None, 256, 256, 32) 4640        max_pooling2d_6[0][0]            
__________________________________________________________________________________________________
conv2d_30 (Conv2D)              (None, 256, 256, 32) 9248        conv2d_29[0][0]                  
__________________________________________________________________________________________________
max_pooling2d_7 (MaxPooling2D)  (None, 128, 128, 32) 0           conv2d_30[0][0]                  
__________________________________________________________________________________________________
conv2d_31 (Conv2D)              (None, 128, 128, 64) 18496       max_pooling2d_7[0][0]            
__________________________________________________________________________________________________
conv2d_32 (Conv2D)              (None, 128, 128, 64) 36928       conv2d_31[0][0]                  
__________________________________________________________________________________________________
max_pooling2d_8 (MaxPooling2D)  (None, 64, 64, 64)   0           conv2d_32[0][0]                  
__________________________________________________________________________________________________
conv2d_33 (Conv2D)              (None, 64, 64, 128)  73856       max_pooling2d_8[0][0]            
__________________________________________________________________________________________________
conv2d_34 (Conv2D)              (None, 64, 64, 128)  147584      conv2d_33[0][0]                  
__________________________________________________________________________________________________
max_pooling2d_9 (MaxPooling2D)  (None, 32, 32, 128)  0           conv2d_34[0][0]                  
__________________________________________________________________________________________________
conv2d_35 (Conv2D)              (None, 32, 32, 256)  295168      max_pooling2d_9[0][0]            
__________________________________________________________________________________________________
conv2d_36 (Conv2D)              (None, 32, 32, 256)  590080      conv2d_35[0][0]                  
__________________________________________________________________________________________________
max_pooling2d_10 (MaxPooling2D) (None, 16, 16, 256)  0           conv2d_36[0][0]                  
__________________________________________________________________________________________________
conv2d_37 (Conv2D)              (None, 16, 16, 512)  1180160     max_pooling2d_10[0][0]           
__________________________________________________________________________________________________
conv2d_38 (Conv2D)              (None, 16, 16, 512)  2359808     conv2d_37[0][0]                  
__________________________________________________________________________________________________
max_pooling2d_11 (MaxPooling2D) (None, 8, 8, 512)    0           conv2d_38[0][0]                  
__________________________________________________________________________________________________
conv2d_39 (Conv2D)              (None, 8, 8, 1024)   4719616     max_pooling2d_11[0][0]           
__________________________________________________________________________________________________
conv2d_40 (Conv2D)              (None, 8, 8, 1024)   9438208     conv2d_39[0][0]                  
__________________________________________________________________________________________________
conv2d_transpose_6 (Conv2DTrans (None, 16, 16, 64)   262208      conv2d_40[0][0]                  
__________________________________________________________________________________________________
concatenate_6 (Concatenate)     (None, 16, 16, 576)  0           conv2d_transpose_6[0][0]         
                                                                 conv2d_38[0][0]                  
__________________________________________________________________________________________________
conv2d_41 (Conv2D)              (None, 16, 16, 512)  2654720     concatenate_6[0][0]              
__________________________________________________________________________________________________
conv2d_42 (Conv2D)              (None, 16, 16, 512)  2359808     conv2d_41[0][0]                  
__________________________________________________________________________________________________
conv2d_transpose_7 (Conv2DTrans (None, 32, 32, 32)   65568       conv2d_42[0][0]                  
__________________________________________________________________________________________________
concatenate_7 (Concatenate)     (None, 32, 32, 288)  0           conv2d_transpose_7[0][0]         
                                                                 conv2d_36[0][0]                  
__________________________________________________________________________________________________
conv2d_43 (Conv2D)              (None, 32, 32, 256)  663808      concatenate_7[0][0]              
__________________________________________________________________________________________________
conv2d_44 (Conv2D)              (None, 32, 32, 256)  590080      conv2d_43[0][0]                  
__________________________________________________________________________________________________
conv2d_transpose_8 (Conv2DTrans (None, 64, 64, 16)   16400       conv2d_44[0][0]                  
__________________________________________________________________________________________________
concatenate_8 (Concatenate)     (None, 64, 64, 144)  0           conv2d_transpose_8[0][0]         
                                                                 conv2d_34[0][0]                  
__________________________________________________________________________________________________
conv2d_45 (Conv2D)              (None, 64, 64, 128)  166016      concatenate_8[0][0]              
__________________________________________________________________________________________________
conv2d_46 (Conv2D)              (None, 64, 64, 128)  147584      conv2d_45[0][0]                  
__________________________________________________________________________________________________
conv2d_transpose_9 (Conv2DTrans (None, 128, 128, 8)  4104        conv2d_46[0][0]                  
__________________________________________________________________________________________________
concatenate_9 (Concatenate)     (None, 128, 128, 72) 0           conv2d_transpose_9[0][0]         
                                                                 conv2d_32[0][0]                  
__________________________________________________________________________________________________
conv2d_47 (Conv2D)              (None, 128, 128, 64) 41536       concatenate_9[0][0]              
__________________________________________________________________________________________________
conv2d_48 (Conv2D)              (None, 128, 128, 64) 36928       conv2d_47[0][0]                  
__________________________________________________________________________________________________
conv2d_transpose_10 (Conv2DTran (None, 256, 256, 4)  1028        conv2d_48[0][0]                  
__________________________________________________________________________________________________
concatenate_10 (Concatenate)    (None, 256, 256, 36) 0           conv2d_transpose_10[0][0]        
                                                                 conv2d_30[0][0]                  
__________________________________________________________________________________________________
conv2d_49 (Conv2D)              (None, 256, 256, 32) 10400       concatenate_10[0][0]             
__________________________________________________________________________________________________
conv2d_50 (Conv2D)              (None, 256, 256, 32) 9248        conv2d_49[0][0]                  
__________________________________________________________________________________________________
conv2d_transpose_11 (Conv2DTran (None, 512, 512, 2)  258         conv2d_50[0][0]                  
__________________________________________________________________________________________________
concatenate_11 (Concatenate)    (None, 512, 512, 18) 0           conv2d_transpose_11[0][0]        
                                                                 conv2d_28[0][0]                  
__________________________________________________________________________________________________
conv2d_51 (Conv2D)              (None, 512, 512, 32) 5216        concatenate_11[0][0]             
__________________________________________________________________________________________________
conv2d_52 (Conv2D)              (None, 512, 512, 32) 9248        conv2d_51[0][0]                  
__________________________________________________________________________________________________
conv2d_53 (Conv2D)              (None, 512, 512, 1)  33          conv2d_52[0][0]                  
==================================================================================================
Total params: 25,920,751
Trainable params: 25,920,751
Non-trainable params: 0
__________________________________________________________________________________________________
Epoch 1/250
 1/49 [..............................] - ETA: 2:44 - loss: 0.1310 -
…
